data/model.pth (torch, 90103 bytes, 8 tensors)

conv1.weight f4 [10, 1, 5, 5]
-0.041664314 -0.107253924 0.21569742 0.03209141 -0.033421386 -0.18215926 0.08176849 0.030621864
0.24527612 -0.18001443 -0.27862978 0.023129739 0.30752006 0.29321817 -0.30490708 0.06328256
-0.104091056 0.3693731 0.072895736 -0.28008643 -0.14954749 0.15174322 0.1777724 0.1663318
-0.30517074 0.011214575 0.32124424 0.35341024 0.21390045 -0.088483594 -0.18309215 -0.07988622
0.2956545 0.48859248 0.1525105 -0.2025057 -0.049702667 -0.13766015 0.36068156 0.006428638
-0.31881854 -0.22124177 -0.12017559 0.1239077 0.3176983 -0.335609 -0.13317141 -0.34828687
-0.058447246 0.22585684 0.044296276 -0.13968897 -0.048008528 0.16768432 0.23167682 -0.21679768
0.11753613 -0.0627004 0.14067613 0.30268186 0.005560407 -0.1790397 -0.046968117 0.36653125
0.2171605 0.012875886 0.033537183 0.31770155 0.41331768 0.22668284 0.22327715 0.16810884
0.19435032 -0.0006848403 -0.25554886 0.0067257704 -0.009816033 0.0264015 -0.068287514 0.05020776
-0.196835 -0.1512619 -0.11894525 -0.22403933 -0.10119304 0.13570526 0.14705056 0.065188535
0.0033417067 -0.07752978 0.12192337 -0.040335614 -0.23474544 -0.03913514 0.21867095 0.14602682
0.09470191 -0.027294653 0.20561771 0.27816865 0.14918262 0.29381227 0.03820923 -0.044092994
-0.27383524 0.018825952 0.3148695 0.15397084 -0.36293596 -0.36566544 0.16885296 0.254025
0.2865164 -0.14694579 -0.38067487 0.2426493 0.41054267 0.24098568 0.15007684 0.17016631
0.08146843 0.090717845 0.33246326 0.3389233 0.12655252 -0.03204391 -0.21086742 -0.30172038
-0.4213181 -0.4145458 0.12702994 0.002743522 -0.04760229 -0.24682127 -0.18366863 0.31897384
0.28419954 0.19512375 0.20949975 0.32201278 -0.06959001 0.36822215 0.43581736 0.36331743
0.24620031 -0.13558151 -0.22506951 -0.051140774 0.17078461 -0.054478858 0.04756527 -0.082881115
-0.047692835 -0.11480624 -0.18892615 -0.22756903 -0.23970337 -0.19332455 -0.18181014 -0.1367607
0.19410108 -0.016239656 -0.28656814 -0.22692937 -0.08600854 -0.07034773 0.16476485 0.11016045
0.3586511 0.2241433 0.27512428 0.14153783 0.473298 0.12334028 0.2714586 -0.020637501
-0.11570618 0.056767512 -0.14839627 0.14293806 -0.0894068 -0.056132935 -0.02717521 -0.03233677
0.18025035 0.14069195 0.021177799 -0.04269037 -0.13008726 0.21965173 -0.12368634 -0.22770908
0.069809355 -0.17021002 0.026840633 -0.05831508 0.045113567 -0.21638174 -0.17575088 -0.2674032
-0.069077626 -0.2797768 -0.03142207 0.050967813 0.09757257 0.033216376 -0.24973114 -0.076180845
0.008654944 -0.04290302 -0.16572641 -0.1615841 -0.2284485 0.1084227 0.06456831 -0.16745307
-0.13622539 -0.0391401 0.19354612 0.3143244 0.1011248 -0.16860847 0.19289568 0.24869655
0.30148157 0.33830917 0.30483547 0.21896154 0.14852573 0.02459923 -0.07049736 -0.05228763
-0.01577282 0.19367802 -0.090307966 -0.2321829 0.049630914 0.04793701 0.076270595 -0.11695308
-0.07474555 -0.15582824 -0.23242797 0.03918398 -0.04753971 -0.1857963 -0.054551814 -0.13834167
-0.0058591305 0.14251357
00000000: 33a8 2abd f2a7 dbbd c9df 5c3e 4872 033d
00000010: dde4 08bd f587 3abe 3d76 a73d b4da fa3c
00000020: aa29 7b3e b455 38be 90a8 8ebe 947a bd3c
00000030: 4573 9d3e b120 963e c81c 9cbe 499a 813d
00000040: b12d d5bd 791e bd3e 5c4a 953d 7d67 8fbe
00000050: fa22 19be 9362 1b3e f809 363e e252 2a3e
00000060: 573f 9cbe 56bd 373c 207a a43e 30f2 b43e
00000070: b808 5b3e e336 b5bd 827c 3bbe 639b a3bd
00000080: 0760 973e cb28 fa3e b62b 1c3e a75d 4fbe
00000090: 0695 4bbd c8f6 0cbe 41ab b83e 53a7 d23b
000000a0: 2f3c a3be 348d 62be 9f1e f6bd 52c3 fd3d
000000b0: 5aa9 a23e f1d4 abbe 165e 08be a852 b2be
000000c0: 6166 6fbd 0447 673e 0370 353d a00a 0fbe
000000d0: 97a4 44bd 70b5 2b3e b03c 6d3e 3600 5ebe
000000e0: c8b6 f03d 1169 80bd 670d 103e 1ef9 9a3e
000000f0: 1334 b63b 2f56 37be a461 40bd fca9 bb3e
00000100: 525f 5e3e 61f5 523c 495e 093d c7a9 a23e
00000110: 609e d33e 8c1f 683e c4a2 643e b924 2c3e
00000120: c503 473e db86 33ba 4dd7 82be da63 dc3b
00000130: 6dd3 20bc f547 d83c 53da 8bbd a7a6 4d3d
00000140: 1d8f 49be 66e4 1abe 9199 f3bd 916a 65be
00000150: 4c3e cfbd 52f6 0a3e 6c94 163e 9181 853d
00000160: 8900 5b3b efc7 9ebd f6b2 f93d f536 25bd
00000170: 1c61 70be 2b4c 20bd 47eb 5f3e 0e88 153e
00000180: 13f3 c13d 0999 dfbc 738d 523e 1f6c 8e3e
00000190: 54c3 183e 906e 963e 4881 1c3d db9a 34bd
000001a0: 2234 8cbe e238 9a3c 9336 a13e 88aa 1d3e
000001b0: bed2 b9be 8038 bbbe cae7 2c3e 910f 823e
000001c0: 47b2 923e f578 16be d1e7 c2be 0f79 783e
000001d0: a632 d23e f3c4 763e bead 193e 1440 2e3e
000001e0: ecd8 a63d 47ca b93d a038 aa3e 5b87 ad3e
000001f0: fc96 013e 7a40 03bd a1ed 57be 187b 9abe
00000200: 02b7 d7be 593f d4be 2314 023e a9cc 333b
00000210: 9efa 42bd b7be 7cbe a113 3cbe 8a50 a33e
00000220: 9a82 913e 85ce 473e 1a87 563e dcde a43e
00000230: 3585 8ebd 9d87 bc3e 7423 df3e be04 ba3e
00000240: ef1b 7c3e e1d5 0abe 9f78 66be fd78 51bd
00000250: 29e2 2e3e 3925 5fbd cdd3 423d 93bd a9bd
00000260: 9059 43bd 891f ebbd db75 41be db07 69be
00000270: cd74 75be dff6 45be 702c 3abe ff0a 0cbe
00000280: 6fc2 463e 0709 85bc 0fb9 92be 2c60 68be
00000290: 3f25 b0bd 7812 90bd 1eb8 283e cd9b e13d
000002a0: 1ea1 b73e d285 653e 17dd 8c3e 4bef 103e
000002b0: 1e54 f23e d499 fc3d 9ffc 8a3e fa0f a9bc
000002c0: 5df7 ecbd 0d85 683d 31f5 17be 5b5e 123e
000002d0: ea1a b7bd a6eb 65bd 8c9e debc 9073 04bd
000002e0: 8c93 383e 8d11 103e 107d ad3c 19dc 2ebd
000002f0: 9835 05be 62ec 603e 444f fdbd 922c 69be
00000300: 35f8 8e3d 894b 2ebe e3e0 db3c cbdb 6ebd
00000310: 01c9 383d 2d93 5dbe 0af8 33be 12e9 88be
00000320: 9278 8dbd e83e 8fbe 6eb4 00bd a0c3 503d
00000330: 21d4 c73d e50d 083d 85b9 7fbe b404 9cbd
00000340: 77cd 0d3c 14bb 2fbd 2fb4 29be 4d76 25be
00000350: 67ee 69be b80c de3d 643c 843d d178 2bbe
00000360: ab7e 0bbe 5f51 20bd f430 463e 21ef a03e
00000370: 851a cf3d b3a7 2cbe 7286 453e 4faa 7e3e
00000380: cb5b 9a3e dc36 ad3e 6513 9c3e 7437 603e
00000390: 2117 183e 5384 c93c eb60 90bd 8e2b 56bd
000003a0: 0036 81bc 8853 463e 62f3 b8bd 5bc1 6dbe
000003b0: c949 4b3d 9959 443d c233 9c3d 1985 efbd
000003c0: 3214 99bd 7091 1fbe 9901 6ebe 627f 203d
000003d0: 00b9 42bd 6341 3ebe b971 5fbd 70a9 0dbe
000003e0: f3fd bfbb 14ef 113e

conv1.bias f4 [10]
-0.06045251 -0.09209148 0.1516335 -0.12366672 -0.079720914 0.09928064 0.20973837 0.06804017
-0.029982716 0.03044711
00000000: 0d9d 77bd 759a bcbd d045 1b3e fa44 fdbd
00000010: b844 a3bd a653 cb3d a8c5 563e a558 8b3d
00000020: 509e f5bc 386c f93c

conv2.weight f4 [20, 10, 5, 5]
-0.037868384 -0.018147085 -0.024932483 0.054950587 -0.012500665 -0.03278022 -0.09345009 -0.046984486
0.0027459797 -0.040943205 -0.11029738 -0.05697093 -0.098560385 0.03455635 -0.015421443 0.00492124
-0.05056433 -0.02400116 -0.037890144 -0.01997627 -0.012605967 0.035634845 -0.01221299 0.052685816
0.012034183 -0.13348708 -0.11079119 -0.06788331 -0.027739031 0.07513221 -0.13801299 -0.14772373
-0.04617212 0.07008696 0.041821536 0.07842732 -0.011054488 -0.0668898 -0.03952227 0.04567376
0.11250187 0.15584046 0.028059388 0.026774585 -0.09450683 -0.028820405 -0.065160416 -0.016369512
-0.006186257 -0.043363787 -0.015772786 0.013647675 0.06175086 0.031379394 0.15824558 -0.051154688
-0.014540607 0.0075682723 -0.0801614 -0.0064276876 -0.025084537 -0.0854088 -0.059229173 -0.093409635
-0.040461387 -0.005013039 -0.008558114 -0.053796683 -0.030459225 -0.083384424 0.013258136 0.06385361
0.024761597 0.049890153 0.0139291575 -0.06375225 0.030940149 0.023516543 0.057285257 0.05607125
-0.012278681 0.056428175 0.011309753 -0.008466096 -0.044731133 -0.009852572 0.035925176 0.07338773
-0.0062666587 0.03590808 0.03776874 0.044575516 0.062065996 0.03456247 0.06739344 0.048258476
-0.00060898956 -0.045513514 -0.06590156 0.025289005 0.014546862 -0.12406084 0.01790058 0.007080194
0.034721587 0.11903301 -0.029689604 -0.0038503825 -0.046945553 -0.051362727 0.1045519 0.11488596
0.035919093 -0.054419223 -0.016073009 -0.054588053 0.049225986 0.09825852 0.05472447 -0.0020620325
-0.09837126 -0.029328441 -0.043539997 0.008572049 -0.029876502 -0.07502508 -0.010538961 0.04763806
0.01759538 0.012977057 -0.01937866 -0.047231384 -0.08555783 -0.057911746 -0.078875594 0.099069096
0.16864498 0.055715844 0.022134261 -0.049808793 -0.023824178 0.15137039 0.15762416 0.07487053
0.014118878 -0.05845172 0.0059860507 0.07397466 -0.011601066 0.02181663 0.021935493 -0.09003997
-0.011010347 0.041116204 0.04207895 0.02610694 -0.034086373 -0.034350295 -0.05713531 -0.05649737
0.04932648 0.056332387 0.10786492 0.05407735 -0.073149756 -0.03133967 -0.004929107 0.00020032952
0.04818407 0.010594326 0.016302148 -0.049636733 -0.0051923594 -0.045310058 0.004751037 -0.0017964145
0.03458068 0.017596614 -0.0051553836 -0.028925154 -0.029530244 -0.003441427 0.050376423 0.05407379
-0.04604848 -0.005427494 0.04952324 -0.02335652 0.05864853 0.03629512 -0.021798208 -0.043751083
0.018553363 0.04150658 0.036694303 0.018012771 -0.008695719 0.06469882 -0.025607174 -0.022665681
-0.02267627 -0.050143383 -0.029161924 -0.031166164 0.07056719 -0.036000643 -0.055947367 -0.031403244
-0.08974664 -0.13302605 -0.10056641 -0.010065456 -0.036880795 -0.03392782 -0.031613443 -0.060373303
-0.069361635 -0.0055154064 0.013703055 -0.0033165303 0.01031003 0.006779962 -0.028699799 -0.0029437474
-0.04551397 -0.032261174 -0.04330288 0.010737093 0.071559355 -0.0064708022 -0.07635975 -0.030899085
-0.018654969 -0.014391031 0.06634781 0.061426364 0.008512403 -0.016394924 0.010321063 -0.038235348
0.010072318 0.0615373 0.06974243 0.06559039 0.0206722 0.033873472 -0.06039785 0.04896009
0.032896798 -0.0340694 -0.056871988 0.08578082 0.0085361125 -0.039356146 0.009868012 0.02456052
00000000: e11b 1bbd 32a9 94bc 353f ccbc de13 613d
00000010: 97cf 4cbc 8d44 06bd c362 bfbd ce72 40bd
00000020: e5f5 333b 10b4 27bd 98e3 e1bd 5a5a 69bd
00000030: 07da c9bd f68a 0d3d 38aa 7cbc 5a42 a13b
00000040: 8b1c 4fbd 159e c4bc b232 1bbd 46a5 a3bc
00000050: 4289 4ebc d8f5 113d fe18 48bc 15cd 573d
00000060: 062b 453c d6b0 08be 7ee6 e2bd 6806 8bbd
00000070: f73c e3bc ebde 993d 4753 0dbe e444 17be
00000080: fa1e 3dbd c189 8f3d 0f4d 2b3d 819e a03d
00000090: e21d 35bc 85fd 88bd 1be2 21bd 6914 3b3d
000000a0: 6167 e63d a494 1f3e cddc e53c 6056 db3c
000000b0: cc8c c1bd c518 ecbc d372 85bd 5b19 86bc
000000c0: 16b6 cabb 3a9e 31bd ee35 81bc 7f9a 5f3c
000000d0: 78ee 7c3d ae87 003d 210b 223e 9487 51bd
000000e0: ba3b 6ebc 45ff f73b a92b a4bd 5a9f d2bb
000000f0: 167e cdbc cfea aebd 4a9a 72bd 8d4d bfbd
00000100: d7ba 25bd 6b44 a4bb 5537 0cbc e959 5cbd
00000110: a085 f9bc 74c5 aabd a738 593c aec5 823d
00000120: d5d8 ca3c 9e59 4c3d 1f37 643c 8a90 82bd
00000130: 3276 fd3c c4a5 c03c f2a3 6a3d f8aa 653d
00000140: 852c 49bc 3b21 673d 8b4c 393c 61b5 0abc
00000150: fe37 37bd af6c 21bc 4726 133d 4e4c 963d
00000160: 8b58 cdbb 5a14 133d 65b3 1a3d d194 363d
00000170: ea38 7e3d 6091 0d3d 9205 8a3d aeaa 453d
00000180: 99a4 1fba 616c 3abd 66f7 86bd e32a cf3c
00000190: f655 6e3c 9c13 febd 3da4 923c f900 e83b
000001a0: 3938 0e3d 94c7 f33d 9d37 f3bc b356 7cbb
000001b0: fb49 40bd b961 52bd 4e1f d63d 5549 eb3d
000001c0: e61f 133d b1e6 5ebd 8bab 83bc b997 5fbd
000001d0: 30a1 493d c33b c93d c426 603d 2a23 07bb
000001e0: df76 c9bd 3342 f0bc ff56 32bd c871 0c3c
000001f0: 91bf f4bc c0a6 99bd 9bab 2cbc 2020 433d
00000200: 3024 903c b99d 543c ffbf 9ebc b275 41bd
00000210: f238 afbd de34 6dbd 8789 a1bd bde4 ca3d
00000220: 45b1 2c3e 4c36 643d e952 b53c 4e04 4cbd
00000230: ec2a c3bc d700 1b3e 3a68 213e b855 993d
00000240: de52 673c 126b 6fbd a226 c43b 0780 973d
00000250: 6612 3ebc cab8 b23c 10b2 b33c e066 b8bd
00000260: be64 34bc 7769 283d fa5a 2c3d 39de d53c
00000270: 279e 0bbd e5b2 0cbd b706 6abd c969 67bd
00000280: 900a 4a3d cabc 663d 48e8 dc3d 3680 5d3d
00000290: 8acf 95bd 075e 00bd 5984 a1bb 8c0f 5239
000002a0: a95c 453d d393 2d3c 158c 853c e34f 4bbd
000002b0: ab24 aabb 0a97 39bd 96ae 9b3b ab75 ebba
000002c0: 79a4 0d3d c626 903c 7eee a8bb 72f4 ecbc
000002d0: 69e9 f1bc 9089 61bb 8257 4e3d 7a7c 5d3d
000002e0: 559d 3cbd 1fd9 b1bb e2d8 4a3d 2c56 bfbc
000002f0: 7139 703d 31aa 143d 2892 b2bc 5634 33bd
00000300: 39fd 973c ce02 2a3d c44c 163d 858f 933c
00000310: 7d78 0ebc d180 843d 23c6 d1bc 61ad b9bc
00000320: 96c3 b9bc 2663 4dbd fde4 eebc 2f50 ffbc
00000330: 8885 903d 6975 13bd 1129 65bd b0a0 00bd
00000340: 16cd b7bd fb37 08be c3f5 cdbd 95e9 24bc
00000350: 5110 17bd e6f7 0abd 197d 01bd ff49 77bd
00000360: 790d 8ebd 95ba b4bb c782 603c 255a 59bb
00000370: 66eb 283c 722a de3b d71b ebbc e3eb 40bb
00000380: db6c 3abd 4b24 04bd 5c5e 31bd a2ea 2f3c
00000390: b68d 923d 0609 d4bb 8062 9cbd 1420 fdbc
000003a0: 4ed2 98bc 5cc8 6bbc 5ce1 873d 369a 7b3d
000003b0: 9b77 0b3c a64e 86bc ad19 293c ab9c 1cbd
000003c0: 5d06 253c 890e 7c3d 1ed5 8e3d 4154 863d
000003d0: bf58 a93c e9be 0a3d bc63 77bd 608a 483d
000003e0: cbbe 063d 5b8c 0bbd 9af2 68bd dbad af3d
000003f0: 0ddb 0b3c e933 21bd 71ad 213c 2533 c93c

conv2.bias f4 [20]
-0.013530932 -0.07642544 0.03815744 -0.075815365 0.041741855 0.010097893 -0.0057946076 0.051881745
0.009058012 -0.007359506 -0.025330374 0.0073205982 -0.057948295 -0.042963997 0.009751029 -0.028250493
-0.01872404 0.053130653 -0.025288064 -0.021473147
00000000: d8b0 5dbc f184 9cbd fa4a 1c3d 1645 9bbd
00000010: 82f9 2a3d a271 253c b1e0 bdbb f481 543d
00000020: 0e68 143c 0328 f1bb a581 cfbc a1e1 ef3b
00000030: 315b 6dbd 04fb 2fbd c8c2 1f3c 946d e7bc
00000040: 2863 99bc 879f 593d ea28 cfbc 74e8 afbc

fc1.weight f4 [50, 320]
0.028367937 -0.017908394 -0.10244519 -0.093589745 -0.09924055 -0.058368973 -0.004441425 0.10586923
0.09682525 0.07605411 0.10605364 -0.025747843 0.051526118 -0.011462384 -0.011729278 -0.10327743
0.047849394 -0.068481416 -0.064452626 0.092388585 -0.05222691 0.02345578 0.07249253 0.0037494767
-0.006788267 0.02674837 -0.03294675 -0.001753923 0.005395431 0.0037530842 -0.005598202 -0.09298074
-0.026000284 0.0027337384 0.06742775 -0.04195539 0.048662186 0.05405259 -0.030968662 0.03807493
-0.086415656 -0.025897956 -0.052413244 -0.044052992 -0.009466349 0.018725099 0.06725725 -0.052456938
-0.11600807 -0.013169263 0.035855994 0.054212347 0.042068962 -0.021469835 0.044771586 -0.020852182
-0.001868893 -0.005115712 0.037101645 -0.03937975 0.08133557 0.031868823 0.041278783 -0.025321366
-0.05397731 -0.015414862 -0.057544857 0.015941326 -0.065220445 0.03330357 0.017018875 -0.01585317
-0.057612993 0.069193415 0.052610476 -0.013173074 0.10746407 0.0537044 -0.053992927 -0.06325541
0.026409818 0.061225288 0.07328929 -0.0251614 0.0046700696 -0.08595092 -0.09587668 -0.072475
-0.113120094 -0.09805056 0.04393142 0.04457776 0.020732736 0.029128065 0.09957566 0.0145754265
-0.054327205 -0.030866358 0.03628744 0.09072074 -0.015029057 0.02617351 0.0036506192 0.025511809
0.08920989 0.0012746218 -0.020159775 -0.06895798 0.010670578 0.05378712 -0.046077833 0.014818552
0.017791286 0.010336095 -0.025041962 0.037473153 -0.014691381 -0.031227471 0.009191854 -0.03380325
0.08893825 -0.0059722196 -0.003433135 -0.027358096 0.01893592 0.025050594 0.007996124 0.024584392
-0.0010552348 -0.03661696 -0.068837166 0.034156315 -0.027387526 0.01003805 0.035297643 0.03215487
0.036158465 -0.0029275804 0.041615725 -0.020628888 -0.0004035021 -0.0007652173 0.032719344 -0.04439649
0.053878777 -0.018694999 -0.0517189 -0.063644305 -0.081153795 0.017488943 -0.030603932 0.053038932
0.025708739 0.06701223 0.015275965 0.028986577 0.0082045905 0.031790413 -0.03327935 -0.004512993
-0.06940725 -0.076685056 0.024165396 -0.024991 -0.0069048326 0.049713455 0.0116515225 0.021863258
0.049835548 0.028369471 0.013014448 -0.026827514 0.004083716 0.025239872 -0.030467436 -0.059802927
0.047074124 -0.0043111364 0.0010709411 0.06192674 -0.017963 -0.013288833 0.013706935 0.02425348
-0.00014648089 0.017785933 -0.07974965 -0.021137781 -0.028641844 -0.01861602 0.0075751944 -0.039370388
-0.0115442425 -0.035052896 -0.0066710934 0.048840087 -0.060066115 0.016303375 0.09419179 0.0004158356
0.06231012 -0.020895192 -0.027450455 -0.004114617 -0.019575775 0.012612649 0.027328666 0.0122272
0.071518585 0.007757192 -0.016651075 0.05657806 0.007778623 0.0041737226 0.037946206 -0.06601432
-0.0035289659 -0.04203324 0.018512929 -0.0072357594 -0.020765686 -0.016655186 0.07447767 0.0046702456
0.0079619 -0.04161854 0.124998525 0.08604041 0.030709328 0.10294538 -0.021462262 -0.08312589
-0.062429115 -0.10530301 -0.058428176 -0.05967985 -0.0722896 -0.031822555 0.061121378 0.028043954
-0.019022988 0.077028036 0.034909222 0.04875822 0.019509654 0.1130182 -0.037425157 -0.10013449
0.027459692 -0.02788797 -0.08989759 0.005182141 -0.0019016522 0.005301162 0.010246843 0.04819424
00000000: e063 e83c a0b4 92bc c9ce d1bd fbab bfbd
00000010: a13e cbbd 4e14 6fbd 6089 91bb f8d1 d83d
00000020: 514c c63d 42c2 9b3d a732 d93d 24ed d2bc
00000030: 0d0d 533d b9cc 3bbc 282c 40bc 1e83 d3bd
00000040: bafd 433d fc3f 8cbd bdff 83bd 3a36 bd3d
00000050: e2eb 55bd 5626 c03c f776 943d c8b9 753b
00000060: 1c70 debb 661f db3c 2cf3 06bd e4e3 e5ba
00000070: 28cc b03b 4ef6 753b 1f71 b7bb b06c bebd
00000080: 8cfe d4bc 8528 333b 8f17 8a3d 6ad9 2bbd
00000090: 0052 473d 4066 5d3d feb1 fdbc 75f4 1b3d
000000a0: b1fa b0bd f327 d4bc 45af 56bd e970 34bd
000000b0: bf18 1bbc 6165 993c 2bbe 893d 16dd 56bd
000000c0: a495 edbd e4c3 57bc bcdd 123d c40d 5e3d
000000d0: 8150 2c3d 82e1 afbc 6962 373d 32d2 aabc
000000e0: a5f5 f4ba b4a1 a7bb e5f7 173d a94c 21bd
000000f0: 4393 a63d e288 023d f113 293d c16e cfbc
00000100: 5017 5dbd 9e8e 7cbc 28b4 6bbd 6297 823c
00000110: 4c92 85bd 5369 083d 2b6b 8b3c 82de 81bc
00000120: 9afb 6bbd 47b5 8d3d 157e 573d e1d3 57bc
00000130: 1f16 dc3d 25f9 5b3d b027 5dbd 0d8c 81bd
00000140: 6759 d83c 5ec7 7a3d b218 963d 481f cebc
00000150: 6207 993b 0907 b0bd fe5a c4bd c66d 94bd
00000160: 82ab e7bd bbce c8bd 6ff1 333d 2b97 363d
00000170: b3d7 a93c fb9d ee3c 53ee cb3d c5cd 6e3c
00000180: 3486 5ebd 72db fcbc 24a2 143d cccb b93d
00000190: 6f3c 76bc d469 d63c 3a3f 6f3b 24fe d03c
000001a0: adb3 b63d 3611 a73a 1d26 a5bc d739 8dbd
000001b0: a6d3 2e3c e24f 5c3d 1cbc 3cbd 83c9 723c
000001c0: 08bf 913c b958 293c cd24 cdbc 737d 193d
000001d0: 1eb4 70bc c1d0 ffbc 6e99 163c 4775 0abd
000001e0: 4225 b63d 9cb2 c3bb 73fe 60bb 161e e0bc
000001f0: 811f 9b3c e736 cd3c 2d02 033c 3565 c93c
00000200: ce4f 8aba aafb 15bd 80fa 8cbd 7ee7 0b3d
00000210: ce5b e0bc a276 243c 4394 103d d3b4 033d
00000220: e61a 143d a6dc 3fbb 4075 2a3d eafd a8bc
00000230: 238d d3b9 dd98 48ba b804 063d 18d9 35bd
00000240: feaf 5c3d 4126 99bc 33d7 53bd f257 82bd
00000250: f633 a6bd f944 8f3c 19b5 fabc 5a3f 593d
00000260: 229b d23c b53d 893d 0b48 7a3c 4275 ed3c
00000270: 8c6c 063c aa36 023d ed4f 08bd bbe1 93bb
00000280: 6325 8ebd 0e0d 9dbd 82f6 c53c edb9 ccbc
00000290: ef41 e2bb 56a0 4b3d 07e6 3e3c 931a b33c
000002a0: 5c20 4c3d 1867 e83c 8d3a 553c 60c5 dbbc
000002b0: b1d0 853b d9c3 ce3c d896 f9bc eaf3 74bd
000002c0: ccd0 403d 6f44 8dbb d25e 8c3a e5a6 7d3d
000002d0: 2427 93bc 68b9 59bc 0d93 603c 3caf c63c
000002e0: aa98 19b9 ceb3 913c c953 a3bd 2429 adbc
000002f0: 4da2 eabc a080 98bc 5639 f83b d842 21bd
00000300: 1024 3dbc a093 0fbd 3099 dabb 8b0c 483d
00000310: e307 76bd a88e 853c a0e7 c03d 8204 da39
00000320: e538 7f3d 652c abbc c7df e0bc e9d3 86bb
00000330: 605d a0bc 49a5 4e3c 5ee0 df3c 9854 483c
00000340: 5678 923d 0b30 fe3b d667 88bc 65be 673d
00000350: d2e3 fe3b b9c3 883b 7b6d 1b3d 8432 87bd
00000360: 3946 67bb 0c2b 2cbd 6da8 973c f319 edbb
00000370: cd1c aabc 7570 88bc c087 983d dc08 993b
00000380: a172 023c 3478 2abd 3aff ff3d f435 b03d
00000390: 2192 fb3c 07d5 d23d a0d1 afbc e83d aabd
000003a0: acb5 7fbd 1ba9 d7bd 6252 6fbd dc72 74bd
000003b0: 920c 94bd 5e58 02bd 695a 7a3d 6fbc e53c
000003c0: 19d6 9bbc e0c0 9d3d f9fc 0e3d b3b6 473d
000003d0: b6d2 9f3c 1676 e73d 1f4b 19bd 5013 cdbd
000003e0: 26f3 e03c 5075 e4bc 3a1c b8bd f3ce a93b
000003f0: dc40 f9ba 5fb5 ad3b 60e2 273c 5367 453d

fc1.bias f4 [50]
-0.042148497 -0.0028415036 0.061535742 0.0152698085 0.030077899 0.00042228278 0.08167248 0.054611113
0.087653935 0.050673906 0.07374678 -0.022055615 -0.049363278 -0.00280986 -0.005776755 0.065062426
0.021759773 0.02310486 0.05361951 0.061736397 0.011024418 0.040512677 -0.037270673 -0.014179652
0.039409623 -0.046473674 -0.046633527 -0.027107043 -0.0016772609 -0.034316868 0.030555261 0.067010656
0.018950518 0.016991956 0.049041454 0.06040776 -0.0056458483 0.06539802 0.002402977 0.010098524
-0.02537422 -0.0037280568 0.09884895 -0.0053507853 0.021207722 0.047189716 0.021599205 0.05010174
-0.013053363 0.08639805
00000000: e7a3 2cbd 8538 3abb e70c 7c3d 382e 7a3c
00000010: ed65 f63c d665 dd39 e743 a73d e7af 5f3d
00000020: e883 b33d 718f 4f3d 8d08 973d faad b4bc
00000030: 2631 4abd a125 38bb ef4a bdbb 733f 853d
00000040: 8d41 b23c 6746 bd3c 22a0 5b3d 4edf 7c3d
00000050: c39f 343c 9ff0 253d 22a9 18bd c551 68bc
00000060: fc6b 213d 2e5b 3ebd cc02 3fbd 970f debc
00000070: 89d7 dbba d88f 0cbd 074f fa3c e23c 893d
00000080: 1e3e 9b3c b732 8b3c b1df 483d 216e 773d
00000090: cf00 b9bb 66ef 853d 447b 1d3b 4874 253c
000000a0: 99dd cfbc 6a52 74bb 5171 ca3d a455 afbb
000000b0: d1bb ad3c 014a 413d d1f0 b03c 7b37 4d3d
000000c0: c6dd 55bc 76f1 b03d

fc2.weight f4 [10, 50]
0.0013624241 0.03510243 0.15124148 -0.15002136 -0.13788879 0.29105046 -0.24932456 0.17666593
-0.14483777 -0.16049367 -0.06859626 -0.15295872 -0.24247468 0.14584859 -0.20767643 0.17296632
-0.10778861 0.18188928 0.18849704 -0.09256518 -0.19380048 0.14285693 0.15830523 0.12217757
-0.12874173 -0.11437355 0.14474934 0.13460796 -0.11869217 -0.1535147 -0.050763708 -0.018155405
0.27410477 -0.15833998 0.1826007 -0.17905468 -0.19216041 -0.2187957 0.18896827 -0.17067324
0.20330036 -0.101334736 -0.15370415 0.13342942 0.13767676 -0.14084277 0.1038487 -0.11182383
0.14051974 -0.16436756 -0.17401396 -0.00834524 -0.18202953 0.07204008 -0.23293585 0.013331441
0.08560734 -0.19915128 0.30609778 0.2116753 0.28134102 0.1549567 -0.16808026 0.10671836
0.15788816 -0.2105894 -0.12918325 -0.13640536 -0.17178775 0.16820118 -0.088029444 -0.09079535
-0.20229506 0.14008087 -0.13916633 -0.10113297 -0.18492413 -0.18853278 -0.082785085 -0.081299365
-0.10025095 0.24898663 -0.03502936 -0.24280834 0.12451867 0.19115293 0.19987035 0.16254976
-0.20129086 0.091335535 -0.12175754 -0.10136907 0.2589796 -0.09217704 -0.18017282 0.18558124
-0.07164949 0.14311847 -0.012281783 0.13180141 -0.13273634 -0.10298897 -0.2007668 0.21409321
0.032910507 0.25741255 0.07850109 0.15645891 -0.09484647 -0.013119333 -0.1107159 -0.10538456
0.11106335 0.08587616 0.2145587 0.14332795 -0.09023187 -0.029164765 -0.09933774 0.097796924
-0.23897085 -0.1116051 0.109319374 0.16628902 0.23693955 0.22521475 0.14972447 0.14475212
-0.025681162 -0.03409757 -0.15365237 0.16058941 -0.056986783 -0.20882186 0.13575375 0.18205754
-0.1484559 -0.36079088 -0.18083698 0.18017924 0.19080426 0.033470046 0.20752102 -0.08167497
-0.10019342 -0.051765095 -0.0703162 0.13571498 0.15215255 -0.090022676 0.20541155 0.2264528
-0.055703815 0.16771595 -0.038073372 0.02134013 0.08988747 0.044227056 -0.22717285 -0.15923038
-0.212703 -0.061033584 0.15419511 -0.14611287 0.17120793 -0.09159418 -0.06516503 0.16033782
-0.032936927 -0.11902296 -0.11929728 -0.114560165 -0.0004108232 0.16705365 -0.14577922 0.023421358
0.13640293 -0.19029135 -0.09353689 0.18929598 -0.019990034 -0.16967887 -0.20145291 -0.13828793
0.17151614 0.016355922 0.1870825 0.123443104 -0.15235946 0.15446153 -0.10867553 0.19666
-0.15122077 -0.040001214 0.17553033 -0.0764851 -0.1681053 0.19220662 0.06597048 -0.30340937
0.14530346 -0.14819703 -0.17714863 0.23222794 0.20538014 0.018800374 0.07827134 -0.2101801
0.0055557396 0.22563046 0.19597018 0.033239353 0.17485254 0.051023483 -0.100154474 0.20862693
0.30104432 -0.19409177 -0.08630366 -0.20355594 0.17039898 -0.24962656 -0.21375169 -0.24782003
-0.057232566 -0.09358816 -0.064481676 0.2209709 0.27563715 -0.11454712 0.026130624 0.29115048
-0.12306806 0.16761449 -0.15163405 -0.05840314 0.051608678 0.083277605 -0.12631309 -0.10022623
-0.06992535 -0.14601259 -0.056287877 0.0061400402 -0.21414103 0.21382193 -0.11999053 -0.184081
-0.06606209 0.13071156 0.1797833 0.23732942 -0.18833417 -0.17257191 -0.09777874 -0.15982524
00000000: 5e93 b23a 91c7 0f3d 0cdf 1a3e 339f 19be
00000010: b832 0dbe 9104 953e f04e 7fbe eae7 343e
00000020: 5a50 14be 7458 24be 327c 8cbd 36a1 1cbe
00000030: 484b 78be 5559 153e 21a9 54be 151e 313e
00000040: 46c0 dcbd 2f41 3a3e 5e05 413e d092 bdbd
00000050: a273 46be 1649 123e c41a 223e 3c38 fa3d
00000060: dfd4 03be ae3c eabd 2c39 143e abd6 093e
00000070: e114 f3bd f532 1dbe 9bed 4fbd a5ba 94bc
00000080: 7657 8c3e e023 22be aefb 3a3e 1c5a 37be
00000090: b3c5 44be fb0b 60be e680 413e f7c4 2ebe
000000a0: f82d 503e 9688 cfbd 9f64 1dbe b9a1 083e
000000b0: 23fb 0c3e 1639 10be a1ae d43d e403 e5bd
000000c0: 68e4 0f3e f84f 28be b730 32be 79ba 08bc
000000d0: f365 3abe c089 933d bc86 6ebe 1e6c 5a3c
000000e0: e752 af3d 50ee 4bbe d9b8 9c3e 69c1 583e
000000f0: ee0b 903e f8ac 1e3e 3b1d 2cbe 288f da3d
00000100: 6fad 213e bfa4 57be 9d48 04be d9ad 0bbe
00000110: 21e9 2fbe ee3c 2c3e c848 b4bd eaf2 b9bd
00000120: 7026 4fbe 5c71 0f3e 9e81 0ebe cd1e cfbd
00000130: c05c 3dbe bd0e 41be 3a8b a9bd 4880 a6bd
00000140: 5f50 cdbd 5af6 7e3e f27a 0fbd c0a2 78be
00000150: a503 ff3d 98bd 433e d0aa 4c3e 7273 263e
00000160: 311f 4ebe 200e bb3d 045c f9bd 969a cfbd
00000170: f998 843e 51c7 bcbd 397f 38be 0209 3e3e
00000180: f8bc 92bd a68d 123e 8839 49bc f3f6 063e
00000190: 09ec 07be e2eb d2bd d095 4dbe 403b 5b3e
000001a0: 2bcd 063d 94cb 833e 2ec5 a03d c436 203e
000001b0: de3e c2bd 79f2 56bc 05bf e2bd dcd3 d7bd
000001c0: 2f75 e33d d7df af3d 47b5 5b3e 90c4 123e
000001d0: 7dcb b8bd f2ea eebc 9671 cbbd c149 c83d
000001e0: c6b4 74be 3791 e4bd d6e2 df3d ab47 2a3e
000001f0: 48a0 723e b29e 663e 5f51 193e e639 143e
00000200: 4d61 d2bc e5a9 0bbd 0c57 1dbe 8d71 243e
00000210: f96a 69bd 66d5 55be 0803 0b3e 4b6d 3a3e
00000220: d304 18be 95b9 b8be 542d 39be e880 383e
00000230: 3162 433e e317 093d 6480 543e 3545 a7bd
00000240: 3532 cdbd a307 54bd f101 90bd def8 0a3e
00000250: e1cd 1b3e cf5d b8bd 6857 523e 3ee3 673e
00000260: af29 64bd bbbd 2b3e d3f2 1bbd 7fd1 ae3c
00000270: ec16 b83d 6e27 353d 00a0 68be 4a0d 23be
00000280: d1ce 59be 5afe 79bd 53e5 1d3e 9d9e 15be
00000290: 2251 2f3e bb95 bbbd 3e75 85bd 992f 243e
000002a0: dfe8 06bd 4fc2 f3bd 2252 f4bd 859e eabd
000002b0: c263 d7b9 1d10 2b3e 2647 15be 26de bf3c
000002c0: 36ad 0b3e bcdb 42be 4590 bfbd ced6 413e
000002d0: 24c2 a3bc 4cc0 2dbe ac49 4ebe 5a9b 0dbe
000002e0: eda1 2f3e dbfc 853c 8e92 3f3e bdcf fc3d
000002f0: 1e04 1cbe 2a2b 1e3e 4791 debd 3d61 493e
00000300: 9ed9 1abe 50d8 23bd 39be 333e 38a4 9cbd
00000310: cc23 2cbe d0d1 443e 881b 873d 7958 9bbe
00000320: 6eca 143e f6c0 17be 7366 35be 29cd 6d3e
00000330: 2c4f 523e 3e03 9a3c b94c a03d 7439 57be
00000340: ec0c b63b ac0b 673e 68ac 483e fd25 083d
00000350: 8b0c 333e 00fe 503d ca1d cdbd 4ca2 553e
00000360: 7b22 9a3e febf 46be f9bf b0bd f870 50be
00000370: 127d 2e3e 1b9e 7fbe b9e1 5abe 89c4 7dbe
00000380: b26c 6abd 26ab bfbd f80e 84bd 3246 623e
00000390: 5020 8d3e ae97 eabd e40f d63c ad11 953e
000003a0: 1b0b fcbd 22a3 2b3e f545 1bbe 2238 6fbd
000003b0: 9f63 533d 738d aa3d 3858 01be 6943 cdbd
000003c0: 0635 8fbd 5384 15be 1e8e 66bd 6432 c93b
000003d0: c947 5bbe 23f4 5a3e 98bd f5bd bb7f 3cbe
000003e0: 904b 87bd 40d9 053e 1d19 383e 7c06 733e
000003f0: acda 40be b1b6 30be 3840 c8bd 3aa9 23be

fc2.bias f4 [10]
0.054876223 0.3455649 -0.09536639 0.058953725 0.02286254 0.08028011 -0.15956815 -0.020382822
-0.04445457 0.14396755
00000000: e4c5 603d e2ed b03e 744f c3bd 7679 713d
00000010: 394a bb3c e669 a43d d565 23be e0f9 a6bc
00000020: ff15 36bd 3b6c 133e
